DeepLearning/3.9.18/model/iris_state.pt (torch, 2600 bytes, 4 tensors)

layer1.weight f4 [16, 4]
00000000: 3393 f53d 9181 c8be 68e7 fcbf e3a2 a0bf
00000010: b2ea 95bd a1ff a53f cf7d 17c0 e567 63bf
00000020: 73f1 69bf a26e e83f b270 f9bf 1d71 1ebf
00000030: 4457 f6bc e6e5 013f fd43 09c0 c488 5bbf
00000040: da50 303e 0122 913e 53c1 02c0 b433 aebf
00000050: e524 48bf b965 9a3f 0585 febf ba0a afbe
00000060: 1976 063e 55b2 45bf 389d 17bf 7320 fdbe
00000070: 9cf1 613f 9cbd dcbf d13d 3640 dd35 803e
00000080: 56ae 9bbe 81c2 4bbf fe78 d1bf a73c 98bf
00000090: 7831 8c3c de04 f7bd 3376 0040 e222 843f
000000a0: 922b a9be ea2e cd3f 9cf4 13c0 c8b8 783d
000000b0: c615 543d b531 7dbf 68e9 87bf 0610 ecbd
000000c0: 693a 953e 2a21 203f 6cb5 c33f 76bf a53f
000000d0: cd1d 813f e19a d4bf 524e 0c40 9599 843f
000000e0: 57cc 423e bf3d 53be 387e ce3f f287 c43f
000000f0: 4e05 893f 61bb cbbf a888 3240 3f56 e83e
0.11990967 -0.3916135 -1.975812 -1.2549709 -0.07320155 1.2968637 -2.3670537 -0.88830405
-0.9138405 1.8158762 -1.9487517 -0.6189135 -0.030070908 0.5074142 -2.1447747 -0.8575556
0.17218342 0.28346255 -2.0430496 -1.3609529 -0.78181297 1.2062293 -1.9884344 -0.3418787
0.13130988 -0.7722524 -0.5922427 -0.4943882 0.8825929 -1.7245364 2.847523 0.25041094
-0.30406445 -0.79593664 -1.6365049 -1.189351 0.017113432 -0.12061475 2.0072143 1.0323145
-0.33041054 1.6029942 -2.3118048 0.060723096 0.051778577 -0.9890397 -1.0618105 -0.11526494
0.29146126 0.62550604 1.528974 1.2949054 1.008722 -1.6609765 2.1922803 1.035937
0.19023262 -0.20629023 1.6132269 1.5353987 1.0704744 -1.5916559 2.7895908 0.453783

layer1.bias f4 [16]
00000000: ab20 63be a92b df3d 8d21 13ba 781a bf3e
00000010: 394b 8ebe 31ca fbbd d95e 99bd e96e 393e
00000020: 8108 c43d ee00 66bd b3ca 97bd 648f 903e
00000030: 61d4 eb3d 6ab4 0a3f fc73 b33e 1ea5 df3e
-0.2218043 0.108969994 -0.00056126044 0.37324882 -0.27791765 -0.12294424 -0.07488794 0.18108715
0.095719345 -0.05615323 -0.07411709 0.28234398 0.115151174 0.5418154 0.35049427 0.43680662

layer2.weight f4 [3, 16]
00000000: a038 d83e cd1c 8f3f ca8c 873f 3c7b 093f
00000010: 2850 2e3f a853 6d3f ff67 04be eb04 94bf
00000020: 2b77 bb3e cabc 25bf 31e3 793f 1c6d e6bd
00000030: 81d2 5abf 77e2 ccbf 3af0 98bf bbcb bdbf
00000040: a140 d83e 921c 92be 9a99 f8be d93b d83d
00000050: 6e52 b53e 9fa0 45be a7ed 893e e375 ad3e
00000060: 1543 073f 08a1 e2bd 0e1c d7be a303 c03e
00000070: 1a7e 17bf 9e86 273c a12e e1be fbe1 8e3e
00000080: 0056 8bbf 630f d2bf 1bf5 56bf 711f 72bf
00000090: b2f4 8ebf d9a2 8ebe 5cf9 99bd 85c8 013f
000000a0: 1229 8fbf 72ec 5f3f 8540 fcbe 3fa5 b6be
000000b0: b749 763f 58dd f53e a5d5 823f f94a 923e
0.422307 1.1180664 1.058984 0.53703666 0.6809106 0.92705774 -0.12930296 -1.1564001
0.36614355 -0.64741194 0.9761229 -0.1125128 -0.85477453 -1.6006612 -1.1948311 -1.4827799
0.42236808 -0.28537422 -0.4855469 0.1055829 0.3541445 -0.19299553 0.26939127 0.33879003
0.52836734 -0.110658705 -0.42013592 0.37502775 -0.5917679 0.010224966 -0.43980888 0.27906784
-1.088562 -1.6410946 -0.8396775 -0.94579226 -1.1168425 -0.27858618 -0.07518265 0.50696594
-1.1184409 0.8747016 -0.49267974 -0.35672948 0.9620623 0.48020434 1.0221449 0.28572825

layer2.bias f4 [3]
00000000: 46f1 cfbe 591b 58be 0046 753e
-0.40613765 -0.21104182 0.23952484
